speech_enhancement_model.pt (torch, 183434 bytes, 52 tensors)

encoder.weight f4 [32, 1, 5]
0.2694153 -0.034286104 0.22323574 0.20666035 -0.26319703 0.35884604 0.14094195 0.40184376
0.37451985 -0.101819515 -0.1573203 0.23398305 0.24382603 0.0628392 0.6202957 0.07159943
-0.030935192 -0.28700474 -0.30633086 -0.30805188 -0.10144995 -0.24720474 -0.13174787 -0.31984985
-0.30311653 -0.030562503 0.41290367 -0.264558 0.16724087 0.6365961 -0.25960425 -0.16409774
-0.2329289 -0.49809793 -0.42429945 -0.29580355 -0.35469592 0.21992506 -0.35907832 -0.18151441
0.15954629 -0.18858615 -0.12023047 0.5006907 0.10151094 0.052057017 -0.13949165 -0.14618129
0.13728878 0.37001836 -0.28832215 -0.02627564 -0.16865748 -0.45384887 0.11844123 -0.41371456
0.4443629 0.058023687 0.3629831 -0.2795464 0.19752766 -0.41055167 -0.1147338 -0.13213389
-0.3655412 -0.21230336 0.3291665 0.05573256 -0.07300768 0.5125318 0.27021274 -0.12589481
-0.18182775 -0.2542313 0.3140903 -0.14211541 0.20125848 -0.24570681 -0.47612286 -0.15034395
0.28634694 -0.3119647 0.31380683 0.6046367 0.6075964 0.2989094 0.21652217 -0.269788
0.057223298 0.016917177 0.065365165 -0.25660172 0.43993363 -0.3851041 -0.04401786 -0.25878787
-0.05945807 0.56960136 0.48669085 0.32475835 -0.2694257 0.02335987 0.112774506 0.31535324
-0.06718195 0.3905152 -0.11223 0.038621716 0.0702496 -0.36894745 -0.06771168 -0.16660136
-0.08923511 -0.2452352 -0.15504338 -0.33879402 0.49233964 0.32850647 0.5027193 -0.22103046
-0.39229083 0.06288839 -0.3245478 -0.48489985 -0.33090582 0.23212513 0.03272706 -0.14215864
-0.16345802 -0.41866073 -0.25721875 0.30782786 0.13494924 -0.20016657 0.21398962 0.3980884
0.24322404 -0.0031503213 -0.29309028 0.3317043 -0.33159515 0.39793938 -0.37639144 -0.26920205
-0.21245971 -0.5062026 0.009230217 -0.5677046 0.18491034 0.11453197 0.16100156 0.042339735
-0.116648614 -0.20856275 -0.26261958 0.18388824 0.23397425 -0.4506617 0.28138527 -0.4893239
00000000: cdf0 893e 966f 0cbd e997 643e c59e 533e
00000010: c3c1 86be abba b73e 1653 103e 77be cd3e
00000020: 11c1 bf3e c086 d0bd 9318 21be 4199 6f3e
00000030: 88ad 793e d7b1 803d b3cb 1e3f b9a2 923d
00000040: cd6b fdbc 49f2 92be 66d7 9cbe fab8 9dbe
00000050: fec4 cfbd 3d23 7dbe eae8 06be 5cc3 a3be
00000060: 1732 9bbe 375e fabc 1c68 d33e 2574 87be
00000070: 3141 2b3e f6f7 223f d9ea 84be 3d09 28be
00000080: ea84 6ebe b106 ffbe c73d d9be 9073 97be
00000090: b49a b5be 0934 613e 1dd9 b7be eade 39be
000000a0: 1a60 233e ba1c 41be 653b f6bd 442d 003f
000000b0: f8e4 cf3d bd39 553d e6d6 0ebe 8cb0 15be
000000c0: 6e95 0c3e 0c73 bd3e f69e 93be 0340 d7bc
000000d0: 8cb4 2cbe e15e e8be 5191 f23d 65d2 d3be
000000e0: 8983 e33e 3faa 6d3d ecd8 b93e b520 8fbe
000000f0: b144 4a3e d433 d2be 8ef9 eabd 1b4e 07be
00000100: 3728 bbbe 0d66 59be 8388 a83e d347 643d
00000110: 0d85 95bd 4935 033f 5359 8a3e 92ea 00be
00000120: 0e31 3abe 9b2a 82be 72d0 a03e b486 11be
00000130: b416 4e3e 919a 7bbe 60c6 f3be c4f3 19be
00000140: 119c 923e d6b9 9fbe 4aab a03e 79c9 1a3f
00000150: 708b 1b3f a70a 993e fdb7 5d3e a721 8abe
00000160: fa62 6a3d e495 8a3c 2cde 853d 4d61 83be
00000170: fb3e e13e 5d2c c5be 124c 34bd d87f 84be
00000180: 4e8a 73bd 65d1 113f 8b2f f93e ba46 a63e
00000190: 2af2 89be 335d bf3c 52f6 e63d fb75 a13e
000001a0: b196 89bd 9cf1 c73e d8d8 e5bd ce31 1e3d
000001b0: 06df 8f3d aee6 bcbe 6cac 8abd 8c99 2abe
000001c0: e6c0 b6bd f01e 7bbe b1c3 1ebe 6976 adbe
000001d0: f113 fc3e 0032 a83e 36b2 003f cf55 62be
000001e0: 58da c8be a1cb 803d 212b a6be cb44 f8be
000001f0: 7d6c a9be 36b2 6d3e cf0c 063d 0992 11be
00000200: 8a61 27be b35a d6be 2db2 83be 9d9b 9d3e
00000210: 2230 0a3e 77f8 4cbe 1820 5b3e 3ed2 cb3e
00000220: b90f 793e 9f75 4ebb ee0f 96be 25d5 a93e
00000230: d7c6 a9be b6be cb3e 61b6 c0be dad4 89be
00000240: 0a8f 59be 7e96 01bf 563a 173c 1755 11bf
00000250: 2359 3d3e bd8f ea3d 98dd 243e 6e6c 2d3d
00000260: 78e5 eebd 7991 55be 1376 86be 334d 3c3e
00000270: f296 6f3e 21bd e6be bb11 903e aa88 fabe

encoder.bias f4 [32]
0.18904285 0.0071533206 0.20570214 0.09750563 0.33183378 0.15742864 0.2857118 0.24710864
0.062711895 0.09292923 -0.013402426 -0.1733121 0.3898016 0.2588743 0.45287415 -0.0063185683
0.16741526 -0.34723485 -0.12042985 0.19819178 0.27883077 0.38281053 -0.14715575 0.013810554
0.27786958 0.44558555 -0.09216128 0.1745404 0.09279653 0.27158356 0.39285138 0.038937114
00000000: 7394 413e 6766 ea3b 95a3 523e 08b1 c73d
00000010: 1ee6 a93e f934 213e d148 923e 0c0a 7d3e
00000020: 186f 803d ae51 be3d d995 5bbc ba78 31be
00000030: 1394 c73e 2c8b 843e 1fdf e73e fe0b cfbb
00000040: e86e 2b3e c4c8 b1be eda3 f6bd c9f2 4a3e
00000050: e8c2 8e3e beff c33e ffaf 16be a945 623c
00000060: ec44 8e3e ca23 e43e 0ebf bcbd b8ba 323e
00000070: 1b0c be3d 000d 8b3e d123 c93e 867c 1f3d

positional_embedding_table.weight f4 [192, 32]
-1.2998624 0.5194606 -1.6728653 0.08093322 -0.44178864 -2.0931294 1.525501 -0.7756204
0.16434643 1.088999 0.93978214 1.3007169 0.3272233 -1.4437938 -0.70892096 -0.57970977
0.93792826 1.369346 -0.25325286 -0.18369162 0.16063333 0.8203101 -0.28106686 -0.31786653
-0.40966964 -0.09038246 -1.2811546 -2.1566553 0.74318457 0.453743 1.2897868 -0.5887564
0.7435563 -0.43637353 -0.31120622 -0.53973716 -1.5713831 -0.50277674 0.4274543 -0.68515474
-1.8395481 -0.47954822 1.1030746 -0.22821808 0.060581386 0.45880917 -0.8631214 -0.95737654
0.33446816 -0.76247954 -0.55441415 -1.0695477 -1.3482633 1.031084 -1.5382209 -0.48192227
0.9496454 0.35962233 0.6697431 -1.6747428 0.35530752 0.3662209 -1.8680032 -0.94541305
-1.499023 0.36061144 0.73391217 -0.6330896 0.46053636 -0.1433085 0.53801394 1.3910047
0.55088365 1.6930814 -0.72050893 -0.64980394 0.911602 1.1075207 0.40206715 -1.4169942
-0.07286893 0.8272352 1.5069824 -0.03517951 -0.8111399 0.51417637 1.4356706 -0.5972753
0.6034468 -0.67661965 -1.1591691 -1.2435759 -0.07980238 -1.066984 0.37997335 -1.4019289
-0.6810007 -1.7476909 1.6526343 -1.0038178 -0.70853287 -0.9116389 0.36065537 -0.051269885
-1.3940642 0.24093774 -2.1055934 -0.9621596 1.002573 -0.3747775 0.28691807 0.4662094
1.1985285 0.18878335 -1.4046603 0.3840453 -1.0554427 -0.34011045 1.3126652 -1.5894903
0.24655753 -0.7381665 0.8554061 1.2802585 0.08388205 -0.4966932 0.2878275 0.8241337
0.4050008 0.6353987 0.0497801 0.40306816 -0.82522047 0.109587185 -0.07114789 0.15756896
1.324813 -1.2476273 -0.9424625 -0.030766735 -0.1857411 -1.5017337 -0.37235773 -0.78372705
0.83223176 1.4507939 -0.25129017 1.248118 -1.0900681 2.1537094 0.3085043 0.017235883
-0.66050935 -0.26136202 1.1228044 -0.1574067 0.38308385 -1.3913006 -1.0265605 -1.0146747
0.8143105 -0.21100444 0.91338843 -0.005841727 -0.14735466 -0.54654956 -0.56216234 0.20040059
-1.808348 0.9783194 -1.3929491 1.4758332 -1.2686495 1.6972336 1.1016719 -1.2105219
-0.92814565 -0.82102394 -0.008094288 1.5248955 0.04452366 1.1982119 -1.1346686 1.2960181
-1.2539972 -0.3082367 1.5655758 -1.6069853 -0.28671703 -2.041189 -2.050015 0.46053505
-0.18078578 1.8689468 0.67048955 0.60141736 0.05883884 -0.36872008 0.38581127 0.3045696
1.06914 0.50111675 -0.2316744 0.6272193 0.44960606 -0.49572006 0.45427698 -0.22505805
0.14816123 0.8739466 -0.9893377 0.114076965 -0.264282 -1.957949 -0.19362214 -2.706722
-0.5931914 0.81764334 0.9518624 -1.190172 1.0663891 0.271207 -2.3817923 -0.147646
-0.87353706 0.85906553 0.8325608 0.83122236 -1.1538725 -0.99978113 0.39892107 -0.17264016
-1.4856962 0.46544448 0.263461 -2.506562 1.1665258 0.062941335 0.44221032 0.3821945
-0.36428547 0.10045487 -0.5947934 0.6330083 -1.4001988 0.45155913 -2.1891582 0.82286566
-0.5932045 -0.94345176 -1.329518 0.20833081 -0.41433784 0.54356146 0.46357855 1.9608274
00000000: e461 a6bf 5ffb 043f 7320 d6bf 51c0 a53d
00000010: 1f32 e2be d5f5 05c0 9e43 c33f 0f8f 46bf
00000020: 6e4a 283e 5264 8b3f 9095 703f e47d a63f
00000030: d089 a73e 3cce b8bf d87b 35bf dc67 14bf
00000040: 111c 703f bb46 af3f 5caa 81be a819 3cbe
00000050: 107d 243e d8ff 513f ffe7 8fbe 67bf a2be
00000060: 38c0 d1be 701a b9bd e0fc a3bf a406 0ac0
00000070: 5841 3e3f 0151 e83e bc17 a53f bdb8 16bf
00000080: b559 3e3f 5a6c dfbe 6c56 9fbe 372c 0abf
00000090: 1523 c9bf fab5 00bf 4adb da3e 4d66 2fbf
000000a0: 5076 ebbf 5887 f5be 8c31 8d3f 00b2 69be
000000b0: 3024 783d 09e9 ea3e 86f5 5cbf a116 75bf
000000c0: 693f ab3e dc31 43bf 16ee 0dbf f0e6 88bf
000000d0: e493 acbf 8ffa 833f 6ce4 c4bf 84be f6be
000000e0: f61b 733f 6b20 b83e 4974 2b3f f95d d6bf
000000f0: deea b53e 4e81 bb3e bb1a efbf 9706 72bf
00000100: fcdf bfbf 10a2 b83e abe1 3b3f 2912 22bf
00000110: 6ccb eb3e 77bf 12be 48bb 093f 710c b23f
00000120: b606 0d3f e4b6 d83f 4673 38bf 8d59 26bf
00000130: c05e 693f 3dc3 8d3f bfdb cd3e 1160 b5bf
00000140: 4e3c 95bd b0c5 533f cde4 c03f 6418 10bd
00000150: dda6 4fbf 10a1 033f 0ec4 b73f 09e7 18bf
00000160: 7d7b 1a3f f236 2dbf a75f 94bf 7f2d 9fbf
00000170: 6e6f a3bd ef92 88bf de8b c23e 6872 b3bf
00000180: 1056 2ebf 56b4 dfbf 8589 d33f 1a7d 80bf
00000190: 6962 35bf 2b61 69bf d2a7 b83e 5f00 52bd
000001a0: b270 b2bf 62b8 763e 0bc2 06c0 1750 76bf
000001b0: 5054 803f d6e2 bfbe ede6 923e 00b3 ee3e
000001c0: 6269 993f 6c50 413e e9cb b3bf 96a1 c43e
000001d0: bf18 87bf f522 aebe 6a05 a83f 6b74 cbbf
000001e0: 9479 7c3e 7bf8 3cbf e5fb 5a3f 83df a33f
000001f0: 5aca ab3d 924e febe 205e 933e 6dfa 523f
00000200: 445c cf3e 7da9 223f 38e6 4b3d f35e ce3e
00000210: a641 53bf 3f6f e03d fcb5 91bd c259 213e
00000220: 7993 a93f 40b2 9fbf 3945 71bf 850a fcbc
00000230: ea32 3ebe cf38 c0bf aca5 bebe 56a2 48bf
00000240: 240d 553f 9db3 b93f 1ba9 80be 55c2 9f3f
00000250: 5a87 8bbf 60d6 0940 47f4 9d3e 4432 8d3c
00000260: 2417 29bf 3ed1 85be 0eb8 8f3f 392f 21be
00000270: 9123 c43e 2316 b2bf 5666 83bf dce0 81bf
00000280: a776 503f 8c11 58be d3d3 693f f56b bfbb
00000290: 24e4 16be acea 0bbf dfe9 0fbf d035 4d3e
000002a0: f277 e7bf 2473 7a3f 284c b2bf 1ae8 bc3f
000002b0: 1b63 a2bf f33e d93f 9603 8d3f 62f2 9abf
000002c0: f49a 6dbf a02e 52bf e89d 04bc c72f c33f
000002d0: 715e 363d 025f 993f d23c 91bf ece3 a53f
000002e0: fb82 a0bf 33d1 9dbe ca64 c83f b2b1 cdbf
000002f0: 93cc 92be d7a2 02c0 7233 03c0 40cb eb3e
00000300: e81f 39be a639 ef3f 34a5 2b3f 7df6 193f
00000310: ff00 713d e1c8 bcbe 0e89 c53e 8cf0 9b3e
00000320: 94d9 883f 3049 003f 0e3c 6dbe 7291 203f
00000330: c432 e63e 05cf fdbe fe96 e83e 9e75 66be
00000340: 94b7 173e f7ba 5f3f 3c45 7dbf 2fa1 e93d
00000350: f84f 87be 139e fabf e244 46be ef3a 2dc0
00000360: 64db 17bf 1351 513f 41ad 733f 8e57 98bf
00000370: 707f 883f a5db 8a3e 496f 18c0 8330 17be
00000380: 20a0 5fbf b8eb 5b3f b422 553f fdca 543f
00000390: 18b2 93bf a8f1 7fbf 623f cc3e 95c8 30be
000003a0: 4b2b bebf bd4e ee3e 5ce4 863e 836b 20c0
000003b0: b850 953f 63e7 803d 6469 e23e ffae c33e
000003c0: a083 babe 48bb cd3d 6144 18bf d50c 223f
000003d0: b739 b3bf c232 e73e 2b1b 0cc0 53a7 523f
000003e0: 40dc 17bf 0e86 71bf a52d aabf ac54 553e
000003f0: 1724 d4be d826 0b3f 2b5a ed3e 64fc fa3f

transformer.layers.0.self_attn.in_proj_weight f4 [96, 32]
0.107983604 -0.121596396 -0.123790495 0.22868054 0.008640618 -0.2320738 0.1682301 -0.21564567
0.15256883 0.10972912 0.1743322 -0.06644752 0.24860981 0.15967987 -0.16312364 -0.14719266
-0.26091117 -0.121887 0.07243526 0.030422287 -0.21103719 -0.029014159 -0.12063661 -0.11616792
0.2092429 -0.0070088804 0.08632905 0.15960747 0.083530515 -0.011363274 -0.042612392 -0.15511987
-0.23487413 -0.07008824 -0.19040577 -0.104984954 0.15651111 -0.06877034 0.2227343 0.05121402
0.14161704 0.16222876 0.07686886 0.07707882 0.08846942 0.12868671 -0.21692316 0.11312529
-0.107784055 0.13425899 0.21087466 -0.058250245 0.11119936 -0.12502177 -0.13900064 -0.0109360395
-0.07423395 0.09031347 0.18211436 0.09038853 0.022681559 0.00876045 -0.12522677 0.1569849
0.040702745 -0.09099444 0.04644363 -0.12300996 -0.020354344 0.21447541 0.17665792 -0.023469755
0.11507079 0.05179919 -0.028046763 -0.14574224 -0.035013888 0.12164974 0.104342505 0.08646469
-0.12705034 -0.05414892 0.1568999 0.04021552 -0.014698255 0.09197918 -0.0984177 -0.12203405
-0.237056 0.01636278 -0.034993563 0.1454422 -0.1009241 0.113839105 0.08712133 0.060781777
0.15082388 0.26430386 0.25283563 -0.21106096 0.17811842 -0.05788618 -0.19340464 -0.11376916
0.13004033 -0.09707968 0.1957955 -0.20268229 0.00069281954 0.11760876 0.17657423 0.09337862
-0.06927454 0.07634567 0.18026695 0.22526501 -0.103607476 -0.13492373 -0.16109177 -0.04396722
-0.030817498 0.004395255 -0.17121693 -0.108761266 -0.15669796 0.008207644 0.02464686 -0.15716048
-0.039692294 -0.040652204 -0.14831094 -0.11411585 -0.007459062 -0.096241415 0.21405955 -0.09153352
0.16300587 -0.22023892 0.10468613 0.030028554 0.080680355 -0.15016684 -0.16338211 -0.15872997
-0.25208798 0.15403703 0.059461113 -0.027710283 0.092844695 0.0827282 -0.05776506 -0.18868676
0.004028371 0.090901785 0.09690861 0.03857498 0.22006647 0.0117126405 0.099404134 -0.17495346
0.16171663 -0.16070552 -0.12635726 -0.14249237 -0.1575885 0.11221136 -0.15013035 0.011067915
0.1649355 0.20057406 0.12532392 -0.09447604 0.18520014 0.20875391 0.09178087 -0.1402015
0.2144137 0.076379545 -0.17348745 0.18417409 -0.0051633823 -0.0046933033 -0.06409838 -0.19207738
-0.0884932 0.18791275 0.043263678 0.11657742 0.053372618 -0.14508967 -0.10369167 0.031821646
-0.026782867 0.07809229 -0.2003751 0.06351587 0.07649734 -0.13280238 0.10634314 0.12302758
0.04340785 -0.16135754 -0.17351979 -0.016399935 -0.12097629 -0.11354038 0.08700303 -0.17375855
0.05599255 -0.10931893 0.20955516 -0.1961508 -0.23560663 0.17254223 -0.121655904 0.011189945
0.221002 0.14030187 -0.18129772 -0.086220466 0.1453361 -0.18801112 -0.041956317 -0.19940576
-0.13563511 0.095790535 0.09360601 -0.16808257 0.1637786 -0.0969604 -0.1752252 0.072849184
-0.16298492 0.10754023 0.18208571 0.111421004 0.14744066 0.14997591 -0.07272213 0.17634025
0.17195821 -0.169206 -0.13832499 -0.22548908 0.19295558 0.18264218 0.007609277 0.012230415
0.2261265 0.05261964 0.042107772 -0.047853317 0.1617288 -0.13520078 -0.0864935 -0.20868997
00000000: 8226 dd3d 8807 f9bd df85 fdbd 3b2b 6a3e
00000010: 6191 0d3c c1a4 6dbe 8344 2c3e 38d2 5cbe
00000020: 013b 1c3e a9b9 e03d 2484 323e a315 88bd
00000030: 9293 7e3e 1f83 233e e209 27be acb9 16be
00000040: 2696 85be e49f f9bd f058 943d 2938 f93c
00000050: 221a 58be 1aaf edbc 5410 f7bd 72e9 edbd
00000060: c543 563e c0aa e5bb 49cd b03d 2470 233e
00000070: 0c12 ab3d 072d 3abc 558a 2ebd bed7 1ebe
00000080: d882 70be 6c8a 8fbd bbf9 42be 5a02 d7bd
00000090: 7344 203e 77d7 8cbd 7614 643e cbc5 513d
000000a0: 0f04 113e 4c1f 263e 6c6d 9d3d 80db 9d3d
000000b0: 752f b53d 73c6 033e 1b21 5ebe 3bae e73d
000000c0: e3bd dcbd 307b 093e 87ef 573e cf97 6ebd
000000d0: 7dbc e33d b505 00be 2f56 0ebe 132d 33bc
000000e0: f807 98bd 45f6 b83d 307c 3a3e 9f1d b93d
000000f0: adce b93c fe87 0f3c 723b 00be a6c0 203e
00000100: ecb7 263d 4b5b babd ad3b 3e3d a5ec fbbd
00000110: 27be a6bc 719f 5b3e d0e5 343e a543 c0bc
00000120: 3caa eb3d 632b 543d 53c2 e5bc 743d 15be
00000130: b96a 0fbd 8023 f93d 86b1 d53d 6614 b13d
00000140: 7c19 02be 42cb 5dbd 5eaa 203e 07b9 243d
00000150: f3d0 70bc 955f bc3d 388f c9bd fdec f9bd
00000160: cfbe 72be 3d0b 863c 6955 0fbd cdee 143e
00000170: 4bb1 cebd 7a24 e93d ab6c b23d 50f6 783d
00000180: 9371 1a3e d652 873e ac73 813e 5d20 58be
00000190: ad64 363e 0f1a 6dbd de0b 46be ceff e8bd
000001a0: 4b29 053e b6d1 c6bd 9e7e 483e f28b 4fbe
000001b0: 559e 353a dddc f03d e0cf 343e 4a3d bf3d
000001c0: cfdf 8dbd 1e5b 9c3d e697 383e dfab 663e
000001d0: 2830 d4bd 7229 0abe 3ef5 24be f916 34bd
000001e0: fa74 fcbc 1206 903b 7e53 2fbe 3abe debd
000001f0: 6e75 20be 5b79 063c 36e8 c93c adee 20be
00000200: 6394 22bd ed82 26bd d3de 17be 92b5 e9bd
00000210: 266b f4bb 381a c5bd 6d32 5b3e ed75 bbbd
00000220: 03eb 263e 5086 61be af65 d63d 71fe f53c
00000230: be3b a53d 56c5 19be a44d 27be 1c8a 22be
00000240: ad11 81be e2bb 1d3e 7f8d 733d ad00 e3bc
00000250: 5c25 be3d 676d a93d 0e9b 6cbd 1a37 41be
00000260: 6d00 843b b72a ba3d 0578 c63d cc00 1e3d
00000270: 1b59 613e 60e6 3f3c 6594 cb3d 0027 33be
00000280: 0b99 253e fd8f 24be cc63 01be 85e9 11be
00000290: e15e 21be 12cf e53d c5bb 19be 3356 353c
000002a0: dae4 283e 4963 4d3e ea54 003e a77c c1bd
000002b0: 1ba5 3d3e 96c3 553e 9cf7 bb3d fb90 0fbe
000002c0: 448f 5b3e e16c 9c3d b2a6 31be 2298 3c3e
000002d0: 9731 a9bb 48ca 99bb 0346 83bd efaf 44be
000002e0: ec3b b5bd 336c 403e 4135 313d 24c0 ee3d
000002f0: 3f9d 5a3d 6392 14be 4c5c d4bd 6a57 023d
00000300: be67 dbbc daee 9f3d 212f 4dbe 9c14 823d
00000310: a3aa 9c3d 59fd 07be 6fca d93d e2f5 fb3d
00000320: 6ecc 313d e93a 25be 2caf 31be 2859 86bc
00000330: 6bc2 f7bd dc87 e8bd a52e b23d c3ed 31be
00000340: 7258 653d 9ae2 dfbd a195 563e c1db 48be
00000350: dd42 71be e9ae 303e bb26 f9bd 0856 373c
00000360: 594e 623e 4bab 0f3e 1ca6 39be 5b94 b0bd
00000370: fdd2 143e fd85 40be 63da 2bbd 0631 4cbe
00000380: eee3 0abe d42d c43d 82b4 bf3d d61d 2cbe
00000390: 94b5 273e 2d93 c6bd 3c6e 33be f431 953d
000003a0: 85e5 26be 0d3e dc3d ad74 3a3e b230 e43d
000003b0: affa 163e 4993 193e 57ef 94bd 8a92 343e
000003c0: d015 303e 5644 2dbe 11a5 0dbe 9ce6 66be
000003d0: 2696 453e 8d06 3b3e 3e57 f93b 1462 483c
000003e0: b58d 673e b187 573d 3379 2c3d d701 44bd
000003f0: 3c9c 253e 1372 0abe 8123 b1bd d3b2 55be

transformer.layers.0.self_attn.in_proj_bias f4 [96]
0.0041964604 -0.014438063 0.016223868 0.011387407 0.006248632 -0.0044152844 -0.015576763 -0.015385116
0.01785773 0.003780691 -0.01270495 0.015676402 0.015214104 -0.013648761 0.003911247 0.0015409696
-0.005088802 -0.005474074 0.011917208 0.013351789 -0.00757429 -0.016801126 0.008996774 -0.0033847822
-0.0008554876 0.01422642 -0.0078103747 0.013943945 0.01041506 -0.011834231 -0.002431533 0.0020332304
-1.3554248e-07 -4.042888e-07 2.7200565e-07 -1.2551847e-07 5.8879084e-07 -2.1433112e-07 1.5409896e-07 -7.297267e-07
5.2825936e-08 -5.0648265e-07 -2.9973748e-08 -7.548913e-08 -2.4738041e-08 -5.0659514e-07 7.91002e-07 -2.570532e-07
7.7013034e-08 -8.933724e-10 -5.915763e-07 -5.178076e-07 4.071914e-07 7.990044e-08 1.0841183e-07 -1.543278e-08
1.3538367e-07 -4.9908294e-08 -2.2301406e-07 1.7962786e-07 -5.6913376e-07 4.6014314e-08 -3.712116e-07 1.3228515e-07
0.0018394768 0.010875944 0.034413077 -0.014136486 0.010700004 0.018295621 -0.007749111 -0.02398579
0.014236035 -0.016032303 0.015814932 -0.010932609 -0.01552006 0.012459693 0.014510783 0.032296654
0.011286246 -0.012854194 0.013779779 0.024929294 0.0119008785 0.0043725604 0.00369487 0.008583345
0.0135588925 -0.010465939 0.014456191 0.019388482 0.00947246 -0.0095231915 -0.00092499965 -0.0075923754
00000000: 7682 893b a08d 6cbc ebe7 843c 3f92 3a3c
00000010: 53c1 cc3b 17ae 90bb ae35 7fbc db11 7cbc
00000020: 604a 923c 78c5 773b 6c28 50bc cc6b 803c
00000030: 9444 793c 0e9f 5fbc eb29 803b 5cfa c93a
00000040: f7bf a6bb dc5f b3bb 6540 433c 76c1 5a3c
00000050: c031 f8bb 84a2 89bc 3567 133c 39d3 5dbb
00000060: cd42 60ba ee15 693c 2cee ffbb 2575 643c
00000070: eea3 2a3c 5de4 41bc 5b5a 1fbb f23f 053b
00000080: a289 11b4 080d d9b4 2c08 9234 41c6 06b4
00000090: 660d 1e35 e422 66b4 6676 2534 70e2 43b5
000000a0: bbe2 6233 39f5 07b5 7cbc 00b3 971c a2b3
000000b0: 877f d4b2 f4fc 07b5 3e55 5435 1f01 8ab4
000000c0: 5d62 a533 7e91 75b0 d0cc 1eb5 78ff 0ab5
000000d0: f69b da34 bb95 ab33 09d0 e833 0b91 84b2
000000e0: fb5d 1134 c05a 56b3 a375 6fb4 bbdf 4034
000000f0: 93c6 18b5 46a1 4533 ef4a c7b4 440a 0e34
00000100: 991a f13a 0431 323c baf4 0c3d b89c 67bc
00000110: 124f 2f3c b3e0 953c 41ec fdbb d97d c4bc
00000120: 423e 693c 2d56 83bc 518e 813c b01e 33bc
00000130: da47 7ebc bd23 4c3c a3be 6d3c 7f49 043d
00000140: f2e9 383c 669a 52bc 95c4 613c 8538 cc3c
00000150: e7fb 423c b247 8f3b a225 723b 29a1 0c3c
00000160: 1e26 5e3c 5479 2bbc a9d9 6c3c 98d4 9e3c
00000170: 6032 1b3c 2907 1cbc ad7b 72ba 76c9 f8bb

transformer.layers.0.self_attn.out_proj.weight f4 [32, 32]
-0.042315964 -0.16214731 -0.04541603 -0.009918832 0.08405743 -0.036982156 0.016104799 -0.008746137
0.11407297 -0.007739989 -0.03827807 -0.014964259 -0.14031512 -0.012447372 0.13144729 -0.08009804
-0.15339682 0.17207754 -0.12169171 0.0052014655 -0.14434063 -0.1253973 -0.07664789 0.06646945
-0.06734739 0.0038009225 -0.11126272 0.08324711 0.070936315 -0.1377073 -0.15395404 -0.042364866
-0.14943844 -0.14709194 -0.14831334 -0.02916331 -0.17006119 -0.18459043 0.06377074 -0.033106487
0.14153233 0.13962941 0.00015404832 0.087608084 0.13381127 -0.11384745 -0.051976137 -0.07346939
-0.11849374 0.10026056 0.08741232 0.005308563 0.1232743 0.0032275924 -0.036456607 0.07482702
0.044583715 0.11617737 0.12870649 0.09780366 -0.1510926 -0.036018707 -0.0872407 0.05273806
-0.099738255 0.12943417 -0.0020180359 -0.023586262 0.15137447 -0.15936041 -0.16034514 -0.034034513
-0.069743 -0.027605703 0.12958091 -0.20386644 -0.15741809 0.099481866 -0.09961689 0.00032068358
0.11223024 -0.052834757 0.1713017 -0.065349475 -0.13147536 0.13434625 -0.087221 -0.14225349
-0.14541422 -0.123469 -0.053923145 0.13750578 -0.11924314 0.08857423 -0.1034771 -0.07075274
0.18230033 0.0076532313 -0.18428177 -0.115082316 0.062388435 -0.1664636 -0.03065992 -0.06961748
-0.1361682 0.2480046 -0.026810667 0.0058153467 -0.13951443 0.12148598 0.027956447 0.02032424
-0.034403574 0.12722339 -0.08222187 -0.12241652 -0.07322078 0.17346509 -0.12766783 0.07582959
-0.15353438 -0.11481126 0.08453363 0.064691484 -0.006220835 0.06209558 -0.15342583 -0.15778641
-0.04074795 0.1561001 -0.06615301 0.17003594 -0.15154004 0.15119672 -0.03066739 0.10866907
-0.026990706 0.08761047 -0.11364192 0.15239796 0.03464155 -0.098334074 0.06269662 -0.13432366
-0.17431562 -0.07263054 -0.057164684 0.09739014 0.10293098 -0.09338322 0.090802275 -0.04951565
-0.015119364 -0.0477939 -0.09546158 -0.0061204755 -0.08870321 -0.1662606 0.07779806 -0.07361877
-0.008080813 0.1144886 -0.09452908 -0.170744 0.10756924 -0.053020243 0.027991386 0.10119044
0.1834056 -0.034002222 0.18957426 -0.12993489 -0.14357778 0.05064588 0.076803796 0.05086864
0.17818177 -0.17930491 0.13431215 0.16942266 0.10169218 -0.02389606 0.07033012 -0.04453299
0.011980546 -0.043111693 -0.0449049 -0.013580936 0.12135135 -0.14184098 0.07542999 -0.18202409
0.16600367 -0.07011661 -0.13699369 0.11574792 0.050179295 0.14583358 0.056423683 0.1239389
-0.21507597 0.2068383 -0.07213037 0.06330466 0.11161669 0.11098869 -0.10991089 0.04907025
0.008346959 0.12603529 -0.17654945 -0.078950554 0.17341122 0.18948244 0.15757112 -0.101344824
-0.033874627 0.03284605 -0.061855264 0.19647105 0.13334256 -0.025473714 0.059998885 -0.024999378
-0.05035571 0.17085296 0.078278854 0.10664163 -0.16271351 -0.060091503 0.07783304 0.034221523
-0.11978465 0.18591152 0.14040327 0.032011177 0.16722527 0.12682268 -0.14787649 0.05639873
0.07613113 0.036847968 -0.013549324 0.061848488 0.05933776 0.069498986 0.015654536 -0.03939446
-0.0327894 -0.09350328 0.030940684 -0.0466367 0.15835595 0.11917464 0.17113936 0.121572904
00000000: 8153 2dbd f209 26be 2906 3abd 9982 22bc
00000010: 4d26 ac3d 9a7a 17bd 36ee 833c f54b 0fbc
00000020: 179f e93d bc9f fdbb 77c9 1cbd a72c 75bc
00000030: c4ae 0fbe 10f0 4bbc 1e9a 063e 710a a4bd
00000040: 0e14 1dbe 1835 303e 8139 f9bd 0e71 aa3b
00000050: 08ce 13be 2668 00be 92f9 9cbd 2321 883d
00000060: 6eed 89bd e618 793b b5dd e3bd 767d aa3d
00000070: 0f47 913d 2403 0dbe 21a6 1dbe c886 2dbd
00000080: 6406 19be 459f 16be 74df 17be e5e7 eebc
00000090: 8524 2ebe 4605 3dbe 3c9a 823d ab9a 07bd
000000a0: daed 103e 03fb 0e3e 0888 2139 de6b b33d
000000b0: d205 093e da28 e9bd eee4 54bd 1f77 96bd
000000c0: d9ac f2bd 6955 cd3d 3b05 b33d 74f3 ad3b
000000d0: 3c77 fc3d 0486 533b 8653 15bd e93e 993d
000000e0: 6a9d 363d 67ee ed3d a2cb 033e 494d c83d
000000f0: 05b8 1abe 5a88 13bd 41ab b2bd dd03 583d
00000100: 9243 ccbd 648a 043e 0641 04bb fa37 c1bc
00000110: e901 1b3e 602f 23be 8431 24be c667 0bbd
00000120: 6bd5 8ebd 5b25 e2bc dcb0 043e 5dc2 50be
00000130: 3532 21be 26bd cb3d f103 ccbd 6c21 a839
00000140: f8d8 e53d 4269 58bd b669 2f3e f2d5 85bd
00000150: 7aa1 06be 1092 093e eca0 b2bd e6aa 11be
00000160: 77e7 14be 51dd fcbd 84de 5cbd 51ce 0c3e
00000170: bf35 f4bd 6866 b53d cdeb d3bd d0e6 90bd
00000180: f0ac 3a3e f5c7 fa3b 5cb4 3cbe 47b0 ebbd
00000190: 048b 7f3d 6f75 2abe 832a fbbc 9c93 8ebd
000001a0: ad6f 0bbe ebf4 7d3e 0ba2 dbbc aa8e be3b
000001b0: dfdc 0ebe a4cd f83d eb04 e53c 057f a63c
000001c0: c3ea 0cbd d946 023e f163 a8bd 83b5 fabd
000001d0: c7f4 95bd d5a0 313e 5bbb 02be 8b4c 9b3d
000001e0: 1e38 1dbe 2a22 ebbd f81f ad3d f87c 843d
000001f0: 25d8 cbbb ef57 7e3d a91b 1dbe c392 21be
00000200: 53e7 26bd b4d8 1f3e 3b7b 87bd e71d 2e3e
00000210: 502d 1bbe 50d3 1a3e 2e3a fbbc e48d de3d
00000220: 9d1b ddbc 1e6d b33d 18bd e8bd 360e 1c3e
00000230: 4ce4 0d3d 6063 c9bd 1667 803d 248c 09be
00000240: cb7f 32be 52bf 94bd 8425 6abd 7b74 c73d
00000250: 7acd d23d b43f bfbd 8bf6 b93d ecd0 4abd
00000260: 35b7 77bc 89c3 43bd 5c81 c3bd 458e c8bb
00000270: 07aa b5bd 3840 2abe 9754 9f3d 70c5 96bd
00000280: 6365 04bc 0079 ea3d 7698 c1bd 84d7 2ebe
00000290: 434d dc3d c12b 59bd 314e e53c ef3c cf3d
000002a0: adce 3b3e ea45 0bbd c11f 423e a70d 05be
000002b0: 0e06 13be 0e72 4f3d 4f4b 9d3d a35b 503d
000002c0: 4875 363e b59b 37be 2089 093e 227d 2d3e
000002d0: fd43 d03d acc1 c3bc 3d09 903d 3968 36bd
000002e0: 0d4a 443c e395 30bd 33ee 37bd 9382 5ebc
000002f0: 0e87 f83d c33e 11be 0a7b 9a3d 8664 3abe
00000300: defc 293e 4c99 8fbd 1348 0cbe 3f0d ed3d
00000310: ce88 4d3d 6655 153e 851c 673d aed3 fd3d
00000320: e03c 5cbe 6bcd 533e 16b9 93bd e0a5 813d
00000330: 4b97 e43d 0a4e e33d f618 e1bd e3fd 483d
00000340: afc1 083c 650f 013e 61c9 34be d4b0 a1bd
00000350: b692 313e af07 423e 535a 213e e08d cfbd
00000360: 1fc0 0abd 9489 063d f25b 7dbd b52f 493e
00000370: f48a 083e 40ae d0bc 64c1 753d 7fcb ccbc
00000380: ca41 4ebd 14f4 2e3e aa50 a03d ed66 da3d
00000390: 5f9e 26be 8222 76bd ee66 9f3d de2b 0c3d
000003a0: a851 f5bd 975f 3e3e e0c5 0f3e 271e 033d
000003b0: 1a3d 2b3e cedd 013e ef6c 17be 5b02 673d
000003c0: a3ea 9b3d e5ed 163d fcfd 5dbc d754 7d3d
000003d0: 270c 733d 7c55 8e3d f13d 803c 165c 21bd
000003e0: 2e4e 06bd a67e bfbd 5177 fd3c 2006 3fbd
000003f0: 1028 223e d511 f43d 283f 2f3e 37fb f83d

transformer.layers.0.self_attn.out_proj.bias f4 [32]
0.0036039578 -0.021571975 -0.00053078623 -0.01103769 -0.019144576 0.009121994 -0.011835073 0.0020898236
0.0023433175 0.015759718 -0.022329194 -0.007231136 -0.010212628 -0.012563209 0.010871279 -0.006497181
-0.016465733 0.0012622275 0.016216526 0.024400558 -0.007553849 0.016957942 -0.002404444 -0.008003842
-0.01589205 0.013141448 0.020222481 0.006325743 -0.0007185922 0.014517657 -0.005515316 0.016470093
00000000: 6130 6c3b b6b7 b0bc 7624 0bba 6dd7 34bc
00000010: 16d5 9cbc 6a74 153c e5e7 41bc 6cf5 083b
00000020: 5892 193b 861a 813c b7eb b6bc 2af3 ecbb
00000030: de52 27bc ebd5 4dbc 731d 323c 4ee6 d4bb
00000040: 25e3 86bc 5471 a53a 85d8 843c aee3 c73c
00000050: 4786 f7bb 62eb 8a3c e093 1dbb 8c22 03bc
00000060: 0b30 82bc 3a4f 573c 9ea9 a53c 2e48 cf3b
00000070: e85f 3cba 78db 6d3c d3b9 b4bb 4aec 863c

transformer.layers.0.linear1.weight f4 [64, 32]
-0.1028185 0.13325012 -0.01424794 0.09410942 -0.0022167556 0.089417875 -0.102997586 -0.09276687
0.029738024 0.16723217 -0.14368898 0.058712784 0.11345977 -0.09168082 -0.06216299 0.008561559
-0.067385264 0.09582254 0.051311057 0.1356127 0.04625916 -0.031043919 -0.10769302 0.14455721
0.016909314 -0.07966149 0.09287068 0.018630166 -0.06067889 0.08174501 0.046720847 -0.14708796
0.12352711 -0.064156264 0.063072644 -0.10937777 -0.10379419 0.16623884 -0.050020907 0.005004838
0.115850784 0.034700148 -0.0746953 0.017717874 -0.112406075 0.069715366 0.17359792 -0.101745285
0.10759814 -0.11174499 0.08202633 0.013773811 0.10517953 0.12866236 -0.16641237 0.021758256
0.07691066 -0.13895561 -0.088628665 -0.05412193 -0.054856695 -0.045639228 0.10267398 -0.02791095
-0.16787621 -0.0021657676 -0.037276655 0.1851822 0.04813587 -0.058035035 -0.023236955 0.113731414
0.0020816557 0.153312 0.041852374 -0.08958228 -0.18210717 0.06124952 -0.12586646 -0.08369158
-0.15356404 0.06850636 -0.023650799 0.1026816 -0.09144033 0.13851543 0.17999107 -0.0594799
0.046149787 -0.1668662 0.04483119 -0.047649786 -0.04740339 -0.16872913 -0.0017201887 -0.18147747
0.14583391 0.11290587 0.16433603 -0.16039209 0.028675979 -0.1230337 -0.09227337 -0.10838664
-0.16254584 -0.047350015 -0.06378447 -0.06131899 0.06989518 0.17926545 -0.17304468 -0.057804655
0.08177567 0.017564248 -0.0134314075 0.009384157 0.16086297 -0.14734523 0.020511763 -0.0687528
-0.1652659 -0.03259517 0.15020716 -0.06688421 0.13048066 -0.16767228 0.041677065 -0.042877685
0.17580955 0.103816 0.1789218 -0.044479627 0.120452374 -0.12510023 -0.0010144479 0.10256994
0.03436169 -0.007393875 -0.094909236 0.08346326 -0.04158758 -0.1894787 0.008280377 -0.1623019
0.04409126 0.014854652 0.122637965 -0.05728816 0.11096011 0.081184894 -0.18652123 0.044992186
0.016974567 -0.047080185 -0.20821027 0.0378395 -0.09703936 0.16640316 0.0672699 0.15287149
-0.18183203 0.18921293 0.15272638 -0.00017746205 0.092216805 -0.06181462 -0.21811047 -0.122022584
0.118374944 0.06296229 -0.1260655 -0.0007127003 0.059408486 0.02983041 -0.019084988 -0.07288356
0.062900364 0.14322259 -0.10520335 0.18681483 -0.11137761 -0.13926406 -0.067383714 0.17465104
-0.2048494 0.036407273 -0.05939474 0.06431258 0.107542925 0.14403862 0.057579048 -0.16884951
0.040085774 -0.105309054 0.12961784 0.011752608 0.09561572 0.102811866 0.017708965 -0.010781646
-0.068548165 -0.0036052817 0.115433365 -0.020802548 -0.06696726 0.19620809 -0.05983052 0.062368356
0.118913025 -0.026312044 -0.09036215 -0.12083905 -0.123689815 -0.09292108 -0.10154844 -0.046888024
-0.012736392 0.058532733 0.06645568 0.11056017 -0.118777364 0.091415 -0.12885812 -0.1604273
0.07554229 0.08473656 -0.114490725 -0.07421138 -0.0025213135 0.077177085 0.0486302 -0.01437312
-0.11071078 0.043511398 0.06261537 -0.14840423 0.15869626 -0.14037254 -0.087931626 -0.1625331
0.03540402 0.08304996 0.15876772 -0.06303699 0.14116906 -0.047826447 -0.12741038 0.11516636
0.14483923 -0.11371104 -0.132595 0.17868166 0.0328451 -0.032803293 0.10532939 -0.17973396
00000000: 8192 d2bd b872 083e 3170 69bc 71bc c03d
00000010: fd46 11bb b820 b73d 66f0 d2bd 8ffc bdbd
00000020: 289d f33c e93e 2b3e 3423 13be d17c 703d
00000030: 995d e83d 27c3 bbbd 9f9e 7ebd c845 0c3c
00000040: 4901 8abd 9c3e c43d 8b2b 523d 0ede 0a3e
00000050: 3f7a 3d3d d14f febc 288e dcbd ce06 143e
00000060: 6785 8a3c 9025 a3bd fc32 be3d 4a9e 983c
00000070: 6e8a 78bd ee69 a73d 5c5e 3f3d 3a9e 16be
00000080: c8fb fc3d 5c64 83bd 3b2c 813d 7401 e0bd
00000090: 0c92 d4bd 843a 2a3e b9e2 4cbd a0ff a33b
000000a0: 2d43 ed3d be21 0e3d d9f9 98bd 1325 913c
000000b0: 2835 e6bd eec6 8e3d a7c3 313e d55f d0bd
000000c0: 6a5c dc3d 8fda e4bd 6cfd a73d 8dab 613c
000000d0: 5e68 d73d 11c0 033e 0168 2abe 5f3e b23c
000000e0: 5683 9d3d 614a 0ebe f282 b5bd f5ae 5dbd
000000f0: 6ab1 60bd 33f0 3abd bc46 d23d 81a5 e4bc
00000100: bee7 2bbe 8def 0dbb 68af 18bd 67a0 3d3e
00000110: 1e2a 453d 25b6 6dbd 6d5b bebc 04ec e83d
00000120: 636c 083b d2fd 1c3e 656d 2b3d ea76 b7bd
00000130: 4d7a 3abe c7e0 7a3d 23e3 00be 7e66 abbd
00000140: e43f 1dbe 104d 8c3d 52bf c1bc bb4a d23d
00000150: 1145 bbbd fdd6 0d3e 944f 383e 32a1 73bd
00000160: 8f07 3d3d f9de 2abe e9a0 373d 6c2c 43bd
00000170: 0f2a 42bd 54c7 2cbe f477 e1ba 3bd5 39be
00000180: 7c55 153e 313b e73d b447 283e d33d 24be
00000190: e3e9 ea3c 18f9 fbbd d2f9 bcbd d1f9 ddbd
000001a0: 6b72 26be 17f2 41bd 6fa1 82bd 9f29 7bbd
000001b0: 3425 8f3d 5d91 373e a032 31be 93c4 6cbd
000001c0: 017a a73d e6e2 8f3c 680f 5cbc 02c0 193c
000001d0: 43b9 243e abe1 16be 4908 a83c 45ce 8cbd
000001e0: 773b 29be 8382 05bd e8cf 193e 97fa 88bd
000001f0: b99c 053e 48b2 2bbe 92b5 2a3d 83a0 2fbd
00000200: 6b07 343e 7c9d d43d 4737 373e 4530 36bd
00000210: bcaf f63d 461a 00be 39f7 84ba 3010 d23d
00000220: d8be 0c3d 5248 f2bb c65f c2bd c9ee aa3d
00000230: bd57 2abd b406 42be 6baa 073c 7832 26be
00000240: 0999 343d ed60 733c 9d29 fb3d fda6 6abd
00000250: 0e3f e33d 4444 a63d 6cff 3ebe ba49 383d
00000260: 3f0e 8b3c 27d7 40bd 1335 55be 97fd 1a3d
00000270: 92bc c6bd 9765 2a3e cdc4 893d 588a 1c3e
00000280: 2d32 3abe 09c1 413e 4e64 1c3e 1b15 3ab9
00000290: 2adc bc3d 5431 7dbd 5a58 5fbe fae6 f9bd
000002a0: 906e f23d 60f2 803d 5017 01be 82d4 3aba
000002b0: 5056 733d e75e f43c 1f58 9cbc fa43 95bd
000002c0: e8d1 803d f1a8 123e db74 d7bd 634c 3f3e
000002d0: f219 e4bd 3d9b 0ebe 7900 8abd b9d7 323e
000002e0: 0bc4 51be cb1f 153d e647 73bd 50b6 833d
000002f0: 773f dc3d dc7e 133e 02d8 6b3d e3e6 2cbe
00000300: fb30 243d 46ac d7bd 8aba 043e 038e 403c
00000310: 2dd2 c33d 078f d23d 6412 913c 80a5 30bc
00000320: fb62 8cbd 9746 6cbb 5468 ec3d 1b6a aabc
00000330: 2126 89bd c6ea 483e d910 75bd f675 7f3d
00000340: ac88 f33d 5b8c d7bc ca0f b9bd 777a f7bd
00000350: 1651 fdbd 684d bebd a1f8 cfbd a80d 40bd
00000360: 4dac 50bc 05c0 6f3d ea19 883d 5f6d e23d
00000370: 8c41 f3bd ca37 bb3d 62f3 03be 0e47 24be
00000380: ebb5 9a3d 5d8a ad3d 1d7a eabd 23fc 97bd
00000390: 9f3c 25bb 050f 9e3d 7630 473d 3c7d 6bbc
000003a0: 55bc e2bd 0239 323d 7d3c 803d 47f7 17be
000003b0: 4681 223e d2bd 0fbe 7f15 b4bd 146f 26be
000003c0: ce03 113d 1916 aa3d 0194 223e 8a19 81bd
000003d0: 9f8e 103e aae5 43bd de77 02be 57dc eb3d
000003e0: bc50 143e 55e1 e8bd fcc6 07be 53f8 363e
000003f0: 9588 063d bf5c 06bd efb6 d73d 2e0c 38be

transformer.layers.0.linear1.bias f4 [64]
-0.11463823 -0.13393195 -0.04054909 -0.028015144 -0.06160061 0.1314163 0.063375995 0.10001998
0.04066191 0.06989472 0.0005223909 -0.071141474 -0.043911103 0.08453469 0.046761382 0.06999488
0.1200563 -0.10392599 -0.00081521505 -0.067465715 -0.008500906 -0.1350258 0.025832063 -0.035371315
0.05275853 -0.0033080555 0.023768535 -0.04668465 0.15105194 0.17182921 0.0862313 0.084064975
0.031280562 -0.122311436 0.18235947 -0.086142465 0.011268335 -0.05923794 0.09693576 0.030725248
-0.10950889 0.016496906 -0.028534498 0.16691208 -0.021965254 0.06476518 -0.14948077 0.029365746
0.091921374 0.12785164 0.05431997 0.02797343 -0.07171671 -0.058215138 0.0130752735 -0.054775055
-0.14722413 -0.15945403 0.10416233 0.017358875 -0.1285726 0.08519164 -0.16777451 -0.07127558
00000000: 73c7 eabd 7525 09be cd16 26bd 0480 e5bc
00000010: ec50 7cbd ff91 063e 46cb 813d 46d7 cc3d
00000020: 1a8d 263d f724 8f3d 0ff1 083a 9fb2 91bd
00000030: 21dc 33bd 8620 ad3d dd88 3f3d 7a59 8f3d
00000040: 14e0 f53d 26d7 d4bd 28b4 55ba 772b 8abd
00000050: 6247 0bbc 3444 0abe c39d d33c 83e1 10bd
00000060: 5419 583d f6cb 58bb 3bb6 c23c 6738 3fbd
00000070: 5cad 1a3e fff3 2f3e 099a b03d 422a ac3d
00000080: 0c20 003d 6b7e fabd 71bc 3a3e 766b b0bd
00000090: d39e 383c 7ba3 72bd 4186 c63d 84b3 fb3c
000000a0: 3246 e0bd 8524 873c 2ec1 e9bc 00eb 2a3e
000000b0: 7af0 b3bc 9ba3 843d 7d11 19be 6f90 f03c
000000c0: 4641 bc3d 8aeb 023e 9e7e 5e3d 8928 e53c
000000d0: 36e0 92bd ff72 6ebd ac39 563c cf5b 60bd
000000e0: ecc1 16be eb47 23be 0f53 d53d 3334 8e3c
000000f0: 89a8 03be f478 ae3d 15cd 2bbe eef8 91bd

transformer.layers.0.linear2.weight f4 [32, 64]
-0.01062243 0.046826135 0.07110892 0.10238497 0.07729218 0.018422062 -0.08150014 -0.10466408
-0.061851934 -0.014650117 -0.093836926 0.0068768333 -0.03115108 0.0568136 -0.05382343 0.015985694
0.063673325 -0.04652853 -0.07921312 -0.06994355 0.09087751 0.0071712225 -0.06574809 -0.036094964
0.034269724 -0.08886493 -0.044327486 -0.08108957 -0.0663861 -0.077936545 -0.044958193 0.1171919
0.0018750317 0.019839456 -0.019200256 0.047744136 0.1178747 0.067620166 -0.010254162 -0.025888262
0.12868197 -0.051519986 0.10651985 -0.008996184 -0.005299424 0.085787155 0.13092184 -0.11114418
-0.06999895 -0.050603446 -0.073894374 -0.10823296 0.07131975 -0.07115237 0.004946733 0.100899525
0.07031832 -0.02777158 -0.019068269 0.023147399 0.09176051 -0.048776925 -0.028860215 -0.012845586
-0.12836936 -0.011178398 -0.08694921 -0.1001314 0.07160576 0.05661852 -0.0018967794 -0.13541569
-0.054184735 0.014621644 -0.10156366 0.0041428483 -0.12786423 0.009343954 -0.07052323 -0.08848752
-0.10485668 -0.078821205 -0.05778918 -0.047950286 0.09411141 -0.020041948 -0.06112951 0.002118165
-0.09484739 0.036354866 0.042442434 0.07830027 -0.044721466 -0.12254994 -0.08169064 0.042791944
0.080703855 0.0058265836 -0.09913162 -0.039027117 -0.00381253 -0.067433625 -0.104505755 0.02413585
0.09861998 -0.07960213 0.04658522 -0.09804864 0.06819507 -0.043622036 -0.06563038 -0.061977096
-0.048178818 0.07508415 -0.07645357 -0.11157086 0.098191485 0.051674902 0.037493743 -0.043277144
-0.121254615 0.07926292 0.0035802708 0.06077409 -0.12506142 -0.021812009 0.05266812 0.09465677
-0.04694382 -0.035010833 0.07913316 0.038353365 0.027296772 0.107158795 -0.02624831 0.018202253
0.052656103 -0.12081738 0.10046328 0.032642312 0.07694918 -0.07673579 0.03338842 0.07922876
-0.07336826 0.02184964 0.111203946 -0.035042457 0.08515488 -0.048525587 0.04149258 0.05097708
0.12901302 0.08539489 -0.087244235 -0.014945317 0.11174723 -0.0020779865 0.12900981 -0.13771884
0.07344411 -0.06164457 0.02466143 0.019041277 0.100763634 -0.07089382 0.10295979 0.06511782
-0.10882736 -0.08333154 -0.012349822 0.020396085 0.0111486465 0.119466186 0.12478718 -0.00082008843
-0.09416642 -0.084475145 -0.09233166 -0.12090219 0.033126365 0.04233483 -0.08195014 -0.027608022
-0.013986598 0.1090387 -0.084496 0.06812898 0.03272459 -0.06364595 0.028894499 -0.12955451
-0.040456768 -0.041567296 0.033442527 -0.034237865 0.03857121 -0.033693988 -0.050448563 0.024895424
-0.12564634 0.05322137 0.005809826 -0.08635682 0.042918947 -0.08991049 -0.072226875 -0.11093406
-0.025870813 0.027120171 -0.08865048 -0.07565523 -0.017541017 -0.07316946 0.11047623 -0.10189614
-0.12349738 0.027148161 0.018585281 -0.023392564 0.106812306 -0.10258997 0.06277694 0.12787782
0.022437174 -0.03779553 -0.09498865 -0.020976925 0.01708733 -0.03955522 -0.016816868 -0.086115204
-0.03440827 -0.12690538 0.07576133 0.103795215 0.042698756 -0.0021806217 0.00018145845 -0.022710841
-0.026440578 -0.1101567 -0.051123995 0.10751512 0.10757226 -0.048013665 0.0807559 0.023661919
0.07605954 0.029789442 0.026151994 0.035738286 -0.09643042 0.053868625 -0.019905593 -0.026835559
00000000: b309 2ebc c3cc 3f3d 8ea1 913d 36af d13d
00000010: 5d4b 9e3d dde9 963c 8ce9 a6bd 1f5a d6bd
00000020: 7458 7dbd 0b07 70bc 932d c0bd 0f57 e13b
00000030: 8d30 ffbc 61b5 683d f575 5cbd 6ef4 823c
00000040: 2967 823d b394 3ebd 7d3a a2bd 903e 8fbd
00000050: fd1d ba3d 93fc ea3b efa6 86bd 50d8 13bd
00000060: 695e 0c3d d1fe b5bd bd90 35bd 4a12 a6bd
00000070: 70f5 87bd 329d 9fbd 1526 38bd 4f02 f03d
00000080: a0c3 f53a 5b86 a23c db49 9dbc 5b8f 433d
00000090: 4a68 f13d 717c 8a3d 1301 28bc 9f13 d4bc
000000a0: 35c5 033e 9f06 53bd 1427 da3d bb64 13bc
000000b0: caa6 adbb 2db1 af3d 6010 063e 8f9f e3bd
000000c0: 9c5b 8fbd 8f45 4fbd ef55 97bd 3ea9 ddbd
000000d0: 1710 923d 55b8 91bd 3418 a23b 69a4 ce3d
000000e0: 0d03 903d 3981 e3bc 0f35 9cbc 9d9f bd3c
000000f0: efec bb3d 50ca 47bd 426c ecbc 4b76 52bc
00000100: 4273 03be 9925 37bc 6d12 b2bd b111 cdbd
00000110: 0aa6 923d d2e8 673d 5b9d f8ba 69aa 0abe
00000120: d0f0 5dbd 9f8f 6f3c 9c00 d0bd bbc0 873b
00000130: d7ee 02be 6217 193c 7c6e 90bd f238 b5bd
00000140: 19bf d6bd 036d a1bd 59b4 6cbd 8567 44bd
00000150: 7cbd c03d 032f a4bc f062 7abd e9d0 0a3b
00000160: 593f c2bd d7e8 143d 1ed8 2d3d e45b a03d
00000170: db2d 37bd 77fb fabd 6c4d a7bd 9b46 2f3d
00000180: 1048 a53d edec be3b 8505 cbbd e6da 1fbd
00000190: a4db 79bb a41a 8abd 1d07 d6bd 8cb8 c53c
000001a0: 46f9 c93d 7106 a3bd 25d0 3e3d bacd c8bd
000001b0: dba9 8b3d 05ad 32bd 3869 86bd b2db 7dbd
000001c0: 2757 45bd b8c5 993d b093 9cbd 437f e4bd
000001d0: 9e18 c93d 10a9 533d 0a93 193d 6043 31bd
000001e0: 5754 f8bd 9954 a23d faa2 6a3b 41ee 783d
000001f0: 1a10 00be 19af b2bc 87ba 573d 69db c13d
00000200: 2a48 40bd 8567 0fbd 9110 a23d 6b18 1d3d
00000210: 7b9d df3c 1276 db3d b206 d7bc e41c 953c
00000220: edad 573d 1a6f f7bd b1bf cd3d f2b3 053d
00000230: 8897 9d3d a727 9dbd 4cc2 083d b042 a23d
00000240: 1942 96bd 04fe b23c e5be e33d ae88 0fbd
00000250: af65 ae3d c4c2 46bd 20f4 293d 58cd 503d
00000260: fd1b 043e 84e3 ae3d 1bad b2bd 34dd 74bc
00000270: bbdb e43d d42e 08bb 261b 043e 2b06 0dbe
00000280: de69 963d 047f 7cbd c406 ca3c 74fc 9b3c
00000290: 2a5d ce3d c730 91bd 95dc d23d 7e5c 853d
000002a0: e1e0 debd baa9 aabd e856 4abc b115 a73c
000002b0: d0a8 363c b0aa f43d 6c90 ff3d 34fb 56ba
000002c0: 53da c0bd 4e01 adbd 6218 bdbd 919b f7bd
000002d0: 83af 073d 4967 2d3d 7ad5 a7bd 382a e2bc
000002e0: 0b28 65bc af4f df3d 3d0c adbd 3587 8b3d
000002f0: 380a 063d cf58 82bd 28b4 ec3c f0a9 04be
00000300: ffb5 25bd 7842 2abd 08fb 083d 013d 0cbd
00000310: d8fc 1d3d b502 0abd 27a3 4ebd 7df1 cb3c
00000320: 6fa9 00be a7fe 593d 5a60 be3b d8db b0bd
00000330: c7cb 2f3d fe22 b8bd afeb 93bd 6531 e3bd
00000340: 07ef d3bc 1f2b de3c 628e b5bd 21f1 9abd
00000350: 2eb2 8fbc dfd9 95bd 5d41 e23d ecae d0bd
00000360: 32ec fcbd d265 de3c 2940 983c c3a1 bfbc
00000370: 69c0 da3d b11a d2bd 3291 803d 67f2 023e
00000380: 2ace b73c 7ccf 1abd 6989 c2bd cdd7 abbc
00000390: bafa 8b3c a804 22bd 87c3 89bc 2b5d b0bd
000003a0: b0ef 0cbd 7cf3 01be c228 9b3d 9692 d43d
000003b0: e4e4 2e3d c3e8 0ebb e245 3e39 160c babc
000003c0: e999 d8bc d699 e1bd 6567 51bd e330 dc3d
000003d0: d84e dc3d faa9 44bd 5963 a53d a4d6 c13c
000003e0: 1bc5 9b3d fd08 f43c b53c d63c 4f62 123d
000003f0: 507d c5bd 59a5 5c3d 0e11 a3bc 3fd6 dbbc

transformer.layers.0.linear2.bias f4 [32]
0.032350194 0.07097164 -0.112241 -0.025688324 -0.05620356 -0.017183406 -0.14133923 -0.0070926663
-0.04769344 0.082288116 0.017206648 0.0960201 -0.0062811775 0.045048352 -0.08064553 0.06458026
-0.025931178 -0.018601527 0.0036870646 0.043814015 -0.0065675923 0.101681314 0.11136943 0.05409578
0.008181489 0.05167124 0.10534808 0.03193544 -0.013032834 0.067428626 0.036225878 0.09539929
00000000: a381 043d 9459 913d 9cde e5bd 5270 d2bc
00000010: b435 66bd 37c4 8cbc 3bbb 10be 9969 e8bb
00000020: 325a 43bd ac86 a83d f5f4 8c3c 30a6 c43d
00000030: 56d2 cdbb 9f84 383d 7c29 a5bd a842 843d
00000040: 9f6d d4bc 3b62 98bc aea2 713b 5376 333d
00000050: f534 d7bb 4b3e d03d a815 e43d 8993 5d3d
00000060: a70b 063c 39a5 533d bcc0 d73d bcce 023d
00000070: ab87 55bc 0518 8a3d 9661 143d b460 c33d

transformer.layers.0.norm1.weight f4 [32]
0.9835186 1.0113106 1.0605794 1.0072732 0.96190464 1.0269114 1.0099734 1.0062852
0.9824499 0.9880195 0.9858444 0.9795065 1.0163864 0.9913244 0.9797111 1.002369
1.036726 0.9813766 0.99287164 1.0246359 0.9796212 0.98469764 0.97404534 1.0025477
1.0003628 1.0060294 0.985582 0.99956083 0.965348 0.9520556 1.0082694 0.96469605
00000000: e0c7 7b3f a072 813f 11c1 873f 54ee 803f
00000010: 623f 763f d571 833f cf46 813f f4cd 803f
00000020: d681 7b3f d9ee 7c3f 4c60 7c3f f0c0 7a3f
00000030: f318 823f 70c7 7d3f 59ce 7a3f a14d 803f
00000040: 70b3 843f 7f3b 7b3f d62c 7e3f 4527 833f
00000050: 74c8 7a3f 2515 7c3f 095b 793f 7c53 803f
00000060: e30b 803f 92c5 803f 1a4f 7c3f 38e3 7f3f
00000070: 0c21 773f eab9 733f f90e 813f 52f6 763f

transformer.layers.0.norm1.bias f4 [32]
0.0049271095 -0.025036963 0.00834933 -0.011386298 -0.018834284 0.016762562 -0.060314585 -0.00379152
0.0015259619 0.023741815 -0.030973824 -0.017560873 -0.012232415 -0.02094808 0.013376407 -0.0059675076
-0.025692232 -0.0010604998 0.018051675 0.024355944 -0.008125899 0.019694287 0.00043203286 -0.00973792
-0.01774559 0.013912094 0.029768573 0.011603039 -0.0038960064 0.010713629 -0.0017713809 0.020156942
00000000: 9773 a13b 511a cdbc a1cb 083c 988d 3abc
00000010: 5b4a 9abc a451 893c 6d0c 77bd 267b 78bb
00000020: c902 c83a 327e c23c d1bc fdbc d2db 8fbc
00000030: 786a 48bc 4f9b abbc b828 5b3c 158b c3bb
00000040: 8478 d2bc 7800 8bba 1be1 933c 1e86 c73c
00000050: 7e22 05bc ea55 a13c 7882 e239 cc8b 1fbc
00000060: 335f 91bc 8def 633c 39dd f33c ac1a 3e3c
00000070: 2454 7fbb 3888 2f3c ae2d e8ba 2c20 a53c

transformer.layers.0.norm2.weight f4 [32]
0.9825349 1.0167345 1.0504761 1.00163 0.9613252 1.0323786 1.0024207 0.991122
0.9884077 0.9869646 0.98777235 0.98270047 1.0271717 0.993407 0.97961414 0.99913305
1.0353596 0.9756146 0.9956584 1.02663 0.9881864 0.99003685 0.9453597 1.0035574
1.0157881 1.0076585 0.98992145 1.0132642 0.9659835 0.9885629 1.0124477 0.95923036
00000000: 6887 7b3f 5b24 823f 0076 863f 6935 803f
00000010: 6919 763f fb24 843f 524f 803f 2cba 7d3f
00000020: 4908 7d3f b6a9 7c3f a6de 7c3f 4292 7b3f
00000030: 5d7a 833f ec4f 7e3f fec7 7a3f 2fc7 7f3f
00000040: aa86 843f e1c1 793f 78e3 7e3f 9d68 833f
00000050: c9f9 7c3f 0e73 7d3f 1803 723f 9274 803f
00000060: 5805 823f f4fa 803f 7e6b 7d3f a4b2 813f
00000070: b24a 773f 7512 7d3f e397 813f 1f90 753f

transformer.layers.0.norm2.bias f4 [32]
-0.0040990976 -0.02738648 0.009629731 -0.014107783 -0.023210777 0.016687244 -0.06035569 -0.0036897752
0.0016720981 0.024745733 -0.03360042 -0.011023944 -0.012572761 -0.01523698 0.013412824 -0.006227486
-0.028876372 0.0014480479 0.016584145 0.023911072 -0.0060575837 0.018912889 0.004050998 -0.00943207
-0.018984893 0.0136055 0.025285114 0.011095137 -0.0026716448 0.0015025956 0.0026200998 0.019751923
00000000: b951 86bb 9c59 e0bc 05c6 1d3c 5524 67bc
00000010: 8724 bebc b0b3 883c 8737 77bd 28d0 71bb
00000020: 4d2a db3a 90b7 ca3c 98a0 09bd c69d 34bc
00000030: fbfd 4dbc 87a4 79bc 76c1 5b3c f00f ccbb
00000040: 248e ecbc 6dcc bd3a 79db 873c 27e1 c33c
00000050: b27e c6bb 34ef 9a3c 3cbe 843b f888 1abc
00000060: 3586 9bbc 9ae9 5e3c ba22 cf3c 61c8 353c
00000070: c316 2fbb bef2 c43a fbb5 2b3b c9ce a13c
